backend/autoencoder_fod.pth (torch, 193551 bytes, 12 tensors)

encoder.0.weight f4 [16, 3, 3, 3]
0	0xbdaa807a	-0.08325286
1	0x3e10a27f	0.14124487
2	0xbc76d901	-0.015066386
3	0xbd8d4ac4	-0.06899026
4	0xbd640eed	-0.055678297
5	0x3e4a99ad	0.19785185
6	0xbe2a1de6	-0.16612968
7	0xbc0853ce	-0.008320762
8	0x3e0a3737	0.13497625
9	0x3e2fd866	0.17172393
10	0x3d0993c9	0.033588205
11	0xbde9257a	-0.11384101
12	0xbe2dd706	-0.16976556
13	0xbe29763e	-0.16549012
14	0x3e060730	0.1308868
15	0x3d95e74b	0.07319506
16	0x3df6bdbf	0.1204791
17	0x3ce79604	0.028269775
18	0xbda12110	-0.07867634
19	0x3e2ffadb	0.17185538
20	0x3e38851b	0.18019526
21	0x3d143f39	0.036193106
22	0x3db7f102	0.089815155
23	0x3e53b2c7	0.20673667
24	0xbc477b50	-0.012175396
25	0x3d466dd6	0.04844459
26	0x3e32f212	0.17475155
27	0x3e45af96	0.19305262
28	0xbe0a0166	-0.13477096
29	0xbde51cde	-0.111871466
30	0xbd9c6c43	-0.07637837
31	0xbe03842b	-0.12843387
32	0x3de32a2c	0.11092028
33	0x3e69c4b1	0.22828938
34	0xbdd485b9	-0.10377068
35	0x3c38edb4	0.011287142
36	0x3dcfe6cc	0.10151443
37	0x3de92efe	0.11385916
38	0x3e065970	0.13120055
39	0xbdd5aab8	-0.10432953
40	0xbdefd0c4	-0.11709741
41	0xbdda302b	-0.106537186
42	0xbe08d71e	-0.1336331
43	0x3dace237	0.084415846
44	0x3e521942	0.20517448
45	0x3e02e64d	0.12783165
46	0xbde53c9b	-0.111932
47	0x3c09e303	0.00841594
48	0xbcb1cf52	-0.021705303
49	0x3d19259b	0.03738938
50	0x3c97139b	0.018441966
51	0xbdbe314e	-0.09286748
52	0xbdeee887	-0.11665445
53	0x3b41e882	0.0029588048
54	0xbd214f87	-0.039382484
55	0x3dcba6a6	0.09943895
56	0x3db929fa	0.090412095
57	0xbdd7b8d3	-0.10533299
58	0xbd961a52	-0.07329239
59	0x3da7edfb	0.08199688
60	0xbe06149a	-0.13093796
61	0xbd11ec90	-0.035625994
62	0xbe13a0be	-0.14416787
63	0x3ca9fc68	0.02075024
64	0x3e2785e9	0.16359676
65	0xbc2d356f	-0.010571822
66	0xbc16e7dc	-0.009210553
67	0x3d8e18e6	0.06938343
68	0x3e311656	0.17293677
69	0xbddeec15	-0.10884873
70	0xbe080e03	-0.13286595
71	0x3d8e2f58	0.06942624
72	0x3e05c392	0.13062885
73	0xbd8a1a40	-0.06743288
74	0xbc0fb7e0	-0.008771867
75	0x3c3387df	0.010957687
76	0x3d659926	0.056054257
77	0x3da9179f	0.082564585
78	0xbe0713c1	-0.1319113
79	0x3d5935b1	0.05302972
80	0xbe0a97c0	-0.1353445
81	0x3e03428d	0.12818356
82	0x3d7306eb	0.05933277
83	0xbd2e7584	-0.04259254
84	0xbd23c054	-0.03997834
85	0x3e279bc4	0.16368014
86	0x3d237f06	0.03991606
87	0x3e094f0e	0.13409063
88	0xbd13f459	-0.0361217
89	0x3cfdc4da	0.030977655
90	0x3cdad811	0.026714357
91	0x3e11dcdf	0.14244412
92	0xbdbaed69	-0.09127314
93	0x3e1816e2	0.14852479
94	0x3db8f83f	0.09031724
95	0xbdc715c6	-0.0972095
96	0xbe0616a0	-0.13094568
97	0x3e1fd333	0.1560791
98	0x3e45599d	0.19272466
99	0xbe163758	-0.1466955
100	0x3e3b6e9f	0.18303917
101	0x3bbdf7a3	0.005797343
102	0xbe1fd412	-0.15608242
103	0x3c11627c	0.008873578
104	0x3e4fbff2	0.20288065
105	0x3d245264	0.040117636
106	0x3db3d3e2	0.08780648
107	0xbbf569e7	-0.007489431
108	0x3d8a86a9	0.06763966
109	0xbe1ce1a4	-0.1532045
110	0x3d8ae808	0.06782538
111	0x3d175207	0.03694346
112	0x3dcf019e	0.1010773
113	0xbe024823	-0.1272283
114	0xbe2833ec	-0.16426057
115	0xbe280785	-0.16409118
116	0xbded48f4	-0.1158618
117	0x3e32b540	0.17451954
118	0x3e066727	0.13125287
119	0x3babf187	0.005247298
120	0xbdcbd13e	-0.09952019
121	0xbe3802f8	-0.17969882
122	0xbe2c89dc	-0.16849464
123	0xbde0cbb4	-0.10976353
124	0xbe4060cb	-0.18786924
125	0x3e269332	0.16267088
126	0x3de0a7be	0.10969494
127	0x3d623e95	0.055235464
128	0x3c9a7d92	0.018858705
129	0xbe2d14e0	-0.16902494
130	0xbae6803c	-0.0017585824
131	0xbd87f393	-0.06638255
132	0xbe2409a6	-0.16019306
133	0x3b962ca5	0.0045829588
134	0xbd173bad	-0.036922146
135	0xbc73b519	-0.01487472
136	0xbd138a84	-0.03602077
137	0xbd819baf	-0.063285224
138	0x3e3e3a64	0.18576962
139	0xbe26adda	-0.16277257
140	0xbe007812	-0.12545803
141	0xbe17fdc5	-0.14842899
142	0x3e512683	0.20424847
143	0xbcedfabf	-0.02905023
144	0x3d4569bd	0.048196543
145	0xbd12c6d5	-0.035834152
146	0xbcc38e6c	-0.023871623
147	0xbca50d21	-0.020147862
148	0x3e3dbf94	0.18530113
149	0x3e18b5a1	0.14913036
150	0xbe019f52	-0.12658432
151	0x3d1441db	0.036195617
152	0xbd6ff81e	-0.058586232
153	0xbdba3835	-0.09092752
154	0xbde9cdb9	-0.114161916
155	0xbd28d33b	-0.04121707
156	0xbe104964	-0.14090496
157	0xbe13b0d3	-0.14422922
158	0x3e15eecb	0.14641874
159	0xbd0cb082	-0.03434802
160	0x3d12b067	0.03581276
161	0xbda4d19a	-0.08047791
162	0x3dc470df	0.09591841
163	0x3e120025	0.14257868
164	0xbd0a8ef0	-0.033827722
165	0x3d74542c	0.059650585
166	0x3e2adc13	0.16685514
167	0xbd46012c	-0.04834096
168	0x3e3c7ef7	0.18407808
169	0x3ddaf2a1	0.10690809
170	0x3e48b2d7	0.19599472
171	0x3d15d34d	0.036578465
172	0x3e1c5c35	0.15269549
173	0xbd29fc7d	-0.041500557
174	0x3d0bfc7e	0.034176342
175	0xbd7fa2da	-0.062411167
176	0xbe2f3e9c	-0.17113727
177	0x3d37e360	0.044894576
178	0x3d989cbe	0.07451771
179	0x3d1d74f3	0.03844161
180	0xbdca2e6b	-0.09872135
181	0x3dcaeb41	0.09908152
182	0xbdb88bd9	-0.09011049
183	0x3e4b5d04	0.19859701
184	0x3ce562c4	0.028001197
185	0xbcbee610	-0.023303062
186	0xbde1c8cd	-0.11024628
187	0x3e50e532	0.20399931
188	0xbe05a5c3	-0.13051514
189	0xbdc0b75f	-0.09409975
190	0x3a85b0dc	0.0010199803
191	0xbd8dffa5	-0.06933526
192	0xbdc68bcf	-0.09694635
193	0x3d8314f4	0.06400481
194	0x3e45ac92	0.19304112
195	0x3e35747a	0.17720214
196	0xbe17ee00	-0.14836884
197	0x3bf37c6f	0.007430605
198	0x3da99414	0.08280197
199	0xbe36527a	-0.178049
200	0x3daf4b71	0.08559311
201	0xbddaeaa7	-0.10689288
202	0xbdfbd877	-0.12297147
203	0x3e424bba	0.189742
204	0xbd4746d1	-0.04865152
205	0xbdc266c7	-0.094922595
206	0x3df7eb8d	0.121054746
207	0xbe11bbe7	-0.14231835
208	0xbd2ec16d	-0.042664934
209	0x3d82093e	0.06349419
210	0x3dd0eb47	0.102011256
211	0x3e250307	0.16114436
212	0x3c66eaab	0.014094035
213	0x3e1919e3	0.14951281
214	0xbe358229	-0.17725433
215	0xbdfab9bc	-0.12242457
216	0x3dd707d4	0.1049954
217	0xbdd50e20	-0.10403085
218	0x3e37ef1e	0.1796231
219	0x3e2cfd66	0.16893539
220	0x3e2b4fea	0.16729704
221	0xbd31de4e	-0.043424897
222	0x3c2d594c	0.010580372
223	0xbdd89c0a	-0.10576637
224	0x3d924da0	0.07143712
225	0xbd9e705a	-0.07736273
226	0x3e2da7b8	0.16958511
227	0x3d2e375f	0.042533275
228	0xbd93492d	-0.071916915
229	0x3ac4feab	0.001502951
230	0x3e369343	0.17829613
231	0x3d98853b	0.07447287
232	0xbda1f3ef	-0.07907855
233	0xbe0f74f3	-0.14009456
234	0xbd380efc	-0.044936165
235	0x3badf901	0.0053092246
236	0x3c6bea9e	0.014399199
237	0x3e082319	0.13294639
238	0x3d7ca7af	0.061683353
239	0xbd86542d	-0.06559024
240	0x3e40cdbe	0.18828484
241	0xbdb43cae	-0.08800636
242	0x3dc71353	0.09720483
243	0xbdc156ad	-0.0944036
244	0xbe140ddd	-0.14458413
245	0xbb998e4a	-0.0046861516
246	0x3e1e6e74	0.15471822
247	0xbd4db4c7	-0.05022123
248	0x3c906a50	0.017628819
249	0xbe06e59d	-0.13173528
250	0x3e37d3e7	0.17951928
251	0x3d8163c3	0.06317856
252	0xbd9e6267	-0.077336125
253	0x3e283803	0.16427617
254	0x3de3e5d7	0.11127823
255	0x3e42173c	0.18954176

encoder.0.bias f4 [16]
0	0xbe2f0e68	-0.1709534
1	0x3dd99f75	0.10626117
2	0x3da7d679	0.08195204
3	0x3c0e964b	0.008702825
4	0xbe07f5a6	-0.13277301
5	0x3dfcc470	0.12342155
6	0x3d6acf29	0.05732647
7	0x3dc40b26	0.09572439
8	0x3c880b2d	0.016606892
9	0x3d835a87	0.06413751
10	0xbdc7bac3	-0.09752419
11	0xbd55766e	-0.052114896
12	0x3e25c703	0.16189198
13	0xbd1a20ed	-0.037629057
14	0x3dfd2bd9	0.12361879
15	0xbd8a30ac	-0.06747565

encoder.2.weight f4 [32, 16, 3, 3]
0	0x3db3f4a9	0.087868996
1	0x3df13597	0.117777996
2	0x3cf7fcd7	0.03027193
3	0x3cda262d	0.026629532
4	0x3c3d95a0	0.011571318
5	0xbc82191b	-0.015881112
6	0x3cbd1708	0.023082271
7	0x3db099ed	0.08623109
8	0x3dbb0906	0.091325805
9	0xbd28f02c	-0.04124467
10	0x3ccb361c	0.024806075
11	0xbd58ceef	-0.052931722
12	0xbd05c77b	-0.032660943
13	0xbd6e6d26	-0.05820956
14	0x3b57e9f9	0.0032945855
15	0xbdd04e2f	-0.10171162
16	0xba564950	-0.00081743766
17	0xbdcce187	-0.100039534
18	0xbd1b4f5a	-0.037917472
19	0x3bcdaa8f	0.0062764357
20	0xbd29dd88	-0.041471034
21	0xbdd5cd19	-0.1043951
22	0xbc7de20f	-0.015495791
23	0x3cfbe43a	0.030748475
24	0xbceca026	-0.028884958
25	0xbd55680d	-0.052101184
26	0xbcc34d0c	-0.02384045
27	0x3dc4a900	0.09602547
28	0xbc761214	-0.015018959
29	0xbc879c18	-0.016553923
30	0xbd32cf8c	-0.043654963
31	0x3bd43552	0.006476083
32	0x3baf6e57	0.0053537297
33	0x3d85d518	0.06534785
34	0x3dc9c994	0.09852901
35	0x3da643d6	0.081184074
36	0x3d166362	0.036715873
37	0xbc778747	-0.015107936
38	0xbd9dc63a	-0.07703824
39	0xbb88b7fc	-0.0041723233
40	0xbd4d6019	-0.050140474
41	0xbcbf9413	-0.023386037
42	0xbda26cc8	-0.079309046
43	0x3cffe6c2	0.031237964
44	0xbd6cf992	-0.057855196
45	0xbbddd5f1	-0.0067698886
46	0x3d15ce2f	0.036573585
47	0x3d5066a5	0.05087914
48	0xbca9b308	-0.020715252
49	0xbd339d9c	-0.04385148
50	0xbca5a467	-0.020219995
51	0x3c6f44c4	0.014603797
52	0xbd317168	-0.043321043
53	0xbc5309b4	-0.012880731
54	0xbcd889a8	-0.026432827
55	0xbd880699	-0.066418834
56	0x3d52c38c	0.05145602
57	0x3d35424e	0.044252686
58	0x3cf7c3b1	0.03024468
59	0xbbbfd581	-0.005854309
60	0xbd8911c3	-0.06692841
61	0x3d571763	0.052512538
62	0xbb40bd59	-0.0029409735
63	0xbc998e2d	-0.018744553
64	0xbd95a55b	-0.0730693
65	0x3c7a68e6	0.015283799
66	0xbdfabff5	-0.12243644
67	0x3cf9b934	0.03048382
68	0xbbc9730e	-0.006147749
69	0xbdc96b11	-0.098348744
70	0xbd53a860	-0.051674247
71	0xbd161e34	-0.036649898
72	0x3db597e4	0.088668615
73	0x3da8f037	0.08248942
74	0xba51c0a6	-0.0008001424
75	0x3d914609	0.07093436
76	0xbd08b447	-0.03337505
77	0x3d66315a	0.05619941
78	0xbd32a651	-0.043615643
79	0x3d3d860f	0.046270426
80	0xbc155c66	-0.009116268
81	0x3d4f514b	0.050614636
82	0x3db41185	0.08792404
83	0xbbef0913	-0.007294783
84	0x3c7675e5	0.015042757
85	0x3bc7f8e9	0.0061026704
86	0xbd5de6b9	-0.054175112
87	0xbd8b31b7	-0.06796592
88	0xbcf1a119	-0.029495763
89	0x3c5b3451	0.013379172
90	0x3d61d520	0.055134892
91	0xbd6d70ee	-0.057969026
92	0xbd74057f	-0.059575554
93	0x3d7c5dd1	0.061612908
94	0xbd886ae4	-0.06661013
95	0x3cb09d3a	0.021559346
96	0xbd8d37df	-0.06895422
97	0x3c56f15c	0.013119068
98	0x3d8109f9	0.0630073
99	0x3da1ed3b	0.07906576
100	0x3cf7465c	0.030184917
101	0x3d0396a9	0.032126103
102	0x3d79ad67	0.060956385
103	0xbd3eb920	-0.046563268
104	0xbcaecb61	-0.021337213
105	0x3b128dbe	0.0022362317
106	0xbd45fed7	-0.048338737
107	0x3ca919d7	0.020642204
108	0xba415db1	-0.0007376327
109	0xbb9017a6	-0.0043973504
110	0x3d0a0902	0.033699997
111	0x3da22c78	0.07918638
112	0xbd8e8550	-0.06959021
113	0xbd88e148	-0.06683594
114	0xbc8e8237	-0.017396076
115	0xbd912f53	-0.070891045
116	0x3daa539c	0.083167285
117	0x3da5290f	0.08064472
118	0xbc8feed2	-0.017569933
119	0x3d6b8c15	0.05750664
120	0xbca6951f	-0.020334778
121	0xbd2b4e4e	-0.041822724
122	0x3dbd3650	0.09238875
123	0xbc421286	-0.011845237
124	0x3dd0af0c	0.101896375
125	0xbc8d38d1	-0.017239006
126	0xbdd8650c	-0.10566148
127	0x3c5536ef	0.0130135855
128	0xbd44e8f8	-0.04807374
129	0x3d46c5cc	0.048528478
130	0xbdae536f	-0.085120074
131	0xbc745576	-0.014912954
132	0x3d33612c	0.043793842
133	0xbd573307	-0.052538898
134	0xbd35c08b	-0.044373076
135	0x3d4ed78f	0.05049854
136	0x3dbf7c17	0.0934984
137	0xbd12549c	-0.03572522
138	0xbc8f5d55	-0.017500559
139	0x3b470ade	0.0030371468
140	0x3c447912	0.011991756
141	0x3c62a505	0.013833289
142	0xbd00a88b	-0.031410735
143	0x3d00d9c3	0.031457674
144	0x3d8b0d6e	0.06789671
145	0xbcbab491	-0.022791179
146	0x3c088a90	0.008333817
147	0xbca786bf	-0.020449994
148	0x3da9c05a	0.08288641
149	0xbb0ea9c9	-0.002176868
150	0x3de94232	0.11389579
151	0x3db0d5c7	0.08634525
152	0x3dac9fc7	0.084289126
153	0xbdddf5f4	-0.108379275
154	0x3c85b6df	0.016322551
155	0xbdb45dc9	-0.088069506
156	0x3d279d5e	0.04092156
157	0xbd20f9ed	-0.039300848
158	0xbda71204	-0.08157733
159	0xbd3bb462	-0.045826323
160	0xbdba99b2	-0.09111346
161	0x3cae88fd	0.021305555
162	0xbd0d660e	-0.034521155
163	0xbc7307fc	-0.014833447
164	0xbd2e6397	-0.042575445
165	0xbde8c566	-0.11365776
166	0xbd861bc3	-0.06548264
167	0xbd94d33a	-0.07266851
168	0x3ba33540	0.004980713
169	0x3cc4ef98	0.024040028
170	0xbde0bca8	-0.10973483
171	0x3d443fa2	0.047912247
172	0xbd3f7f03	-0.046751987
173	0xbd5549f1	-0.05207247
174	0x3da142da	0.07874079
175	0x3c86c346	0.016450536
176	0x3c0c21c4	0.008552972
177	0x3d8bde7c	0.06829545
178	0x3dc36afc	0.0954189
179	0x3d897b94	0.06713024
180	0xbc18ae3b	-0.0093188835
181	0xbdbb1ffc	-0.0913696
182	0x3ce4a84d	0.027912283
183	0x3d4632f4	0.048388436
184	0x3b7d8c9a	0.0038688541
185	0x3d2e951f	0.04262268
186	0x3cd58976	0.026066523
187	0x3d93046e	0.07178579
188	0xbd2f6bfc	-0.04282759
189	0xbbefb980	-0.0073158145
190	0x3d01005b	0.03149448
191	0xbdad2d44	-0.08455899
192	0xbca4d835	-0.020122627
193	0x3d06444f	0.032779988
194	0xbd626f23	-0.05528177
195	0xbd003832	-0.031303592
196	0x3d06b611	0.032888476
197	0x3d1c92cb	0.03822593
198	0xbd4b756d	-0.049672533
199	0x3c422e7c	0.011851903
200	0x3c47b8d4	0.012190063
201	0x3d46f50a	0.04857353
202	0x3d6b9d5a	0.05752311
203	0x3d95d396	0.073157474
204	0xbd08db48	-0.033412248
205	0xbd949aab	-0.07256063
206	0xbce7881f	-0.02826315
207	0xbde62389	-0.112372465
208	0xbde98ffc	-0.11404416
209	0xbd13b889	-0.03606466
210	0x3c609bec	0.01370905
211	0xbc6621c0	-0.014046133
212	0xbdd8a437	-0.105781965
213	0xbd8401ea	-0.064456776
214	0xbc32cd94	-0.010913271
215	0xbd4eb63a	-0.050466754
216	0xbd0cc445	-0.034366865
217	0x3d979078	0.07400602
218	0xbd1d8df3	-0.03846545
219	0xbd5c7b6c	-0.05382864
220	0x3da6eaa8	0.08150226
221	0xbc9f3e5a	-0.019438911
222	0x3db391cf	0.08768045
223	0xbd580662	-0.052740462
224	0x3d620831	0.055183593
225	0x3d97b9b7	0.07408469
226	0x3d9fa463	0.07795026
227	0x3d7fe7f1	0.062477056
228	0xbcd5fe69	-0.026122289
229	0xbcb3dabb	-0.021954885
230	0xbd91791f	-0.0710318
231	0x3d357218	0.04429826
232	0x3d43c93f	0.047799345
233	0x3d0bea5a	0.034159042
234	0xbdaca479	-0.08429808
235	0xbbf0e77c	-0.007351814
236	0x3d755ac4	0.059901014
237	0xbcd751e4	-0.026284166
238	0xbc153cf0	-0.009108767
239	0x3b353e2e	0.002765547
240	0xbd62ae9a	-0.055342294
241	0x3d02b8f3	0.031914663
242	0xbd8f225b	-0.06988975
243	0x3d9ed08b	0.0775462
244	0x3d2a8857	0.04163393
245	0xbcc8a22c	-0.024491392
246	0x3d205976	0.039147817
247	0x3cad1b9b	0.021131327
248	0x3d24d584	0.040242687
249	0x3d2f14ae	0.04274433
250	0x3c73f6cd	0.014890385
251	0xbd5e7566	-0.05431118
252	0x3d722348	0.059115678
253	0x3da1060f	0.07862484
254	0xbd7db081	-0.061935905
255	0xbbae43d5	-0.005318145

encoder.2.bias f4 [32]
0	0xbd2e27af	-0.042518314
1	0xbc1e6f69	-0.009670117
2	0x3d7132f4	0.058886483
3	0xbc91efef	-0.017814605
4	0xbd175bff	-0.03695297
5	0x3c9a025e	0.018799957
6	0xbd670349	-0.056399617
7	0x3c9ef07d	0.019401783
8	0xbbeef4ee	-0.0072923815
9	0x3deffe79	0.11718459
10	0xbd8cf049	-0.06881768
11	0x3d4d4299	0.05011234
12	0xbd220240	-0.039552927
13	0xbd1de623	-0.038549554
14	0x3d37852f	0.04480475
15	0xbd8d8b4d	-0.06911335
16	0x3b8485f7	0.00404429
17	0xbd920bb4	-0.071311384
18	0xbdab6d8e	-0.08370505
19	0xbdc93579	-0.09824652
20	0xbd09d49d	-0.03365003
21	0xbda8f8a9	-0.08250553
22	0xbd406355	-0.04696973
23	0x3ccb4c08	0.024816528
24	0x3df340e7	0.118776135
25	0x3c1e28e5	0.009653305
26	0x3ddc456e	0.1075543
27	0xbb86c378	-0.004112657
28	0xbd0caea2	-0.03434623
29	0x3c9d0ef8	0.019172177
30	0x3e0b9195	0.13629754
31	0x3c188342	0.009308638

encoder.4.weight f4 [64, 32, 3, 3]
0	0xbcfc148d	-0.030771518
1	0x3d8bc4c6	0.06824641
2	0x3b8430f4	0.004034156
3	0x3cb0c2c3	0.021577245
4	0x3da7ebf7	0.081993036
5	0x3d9408b0	0.072282195
6	0xb9959b74	-0.00028535316
7	0x3a9f0364	0.0012131748
8	0xbb970683	-0.0046089306
9	0x3d1525cb	0.036412995
10	0xbcf6675b	-0.03007858
11	0x3c367859	0.011137092
12	0xbb63f851	-0.003478546
13	0x3ca93968	0.020657256
14	0x3d0e4714	0.034735754
15	0xbc927b2c	-0.017880999
16	0x3d705348	0.058673173
17	0xbb1fda8a	-0.0024391734
18	0xbd896446	-0.06708579
19	0xbd856070	-0.065125346
20	0xbd9ddcbb	-0.077081166
21	0xbc9abd40	-0.01888907
22	0xbda37d40	-0.07982874
23	0x3bcf261e	0.0063216826
24	0xbd3520ca	-0.044220723
25	0x3b71216f	0.003679361
26	0x3cb65b2a	0.022260267
27	0xbd13e44b	-0.03610639
28	0x3d6d73c1	0.05797172
29	0x3d5366a4	0.051611558
30	0xbba3f2f4	-0.0050033275
31	0x3d369a6d	0.044580866
32	0xbb91baa6	-0.004447299
33	0x3bb732f9	0.005590793
34	0x3ac4704f	0.0014987084
35	0x3d6b7328	0.05748287
36	0x3d019ab4	0.031641677
37	0x3c8bb303	0.017053133
38	0xbd3f8bf5	-0.046764333
39	0xbbc77954	-0.0060874615
40	0x3c5d7ddc	0.013518777
41	0xbd497a0e	-0.049188666
42	0x3d0cc72e	0.03436964
43	0x3ce876c6	0.028376948
44	0xbcf50f94	-0.029914655
45	0x3d48f512	0.049061842
46	0xbbe0b81c	-0.006857885
47	0x3d61a1dc	0.055086
48	0xbc2dfd77	-0.010619513
49	0x3d6aaba0	0.05729258
50	0x3d8c52c7	0.06851726
51	0xbd2d39ac	-0.04229133
52	0x3d839555	0.06424967
53	0x3b399f88	0.0028323848
54	0xbc98e8ba	-0.01866566
55	0x3cd9ee37	0.026602848
56	0x3c232357	0.009957156
57	0xbd03b783	-0.032157432
58	0x3c98f5ab	0.018671831
59	0xbd2c3967	-0.04204693
60	0x3cdecb7d	0.02719664
61	0x3d3e5fce	0.046478085
62	0x3b36f754	0.0027918415
63	0x3d77d6c9	0.06050757
64	0x3c575c11	0.013144509
65	0x3b078e30	0.0020684116
66	0xbd0fce49	-0.03510884
67	0x3d5d915b	0.0540937
68	0x3d05c874	0.03266187
69	0xbd1fbf80	-0.039000988
70	0x3c83b8b3	0.016079282
71	0xbc7e1ea6	-0.015510237
72	0x3d03dfa5	0.032195706
73	0xbc06d386	-0.008229142
74	0xbcaa57ee	-0.020793881
75	0xbb6a28a0	-0.003572978
76	0x3d9a0533	0.07520523
77	0xbb5d836d	-0.003380026
78	0x3cfe4ffa	0.031043995
79	0xbd282f8e	-0.041060977
80	0xbccca8d8	-0.024982855
81	0xbd47427e	-0.048647396
82	0xbdb12183	-0.0864897
83	0xbcaaf85f	-0.020870386
84	0xbdb26589	-0.087107725
85	0x3b1449db	0.002262703
86	0xbdb3fc62	-0.087883726
87	0xbcfe387b	-0.031032791
88	0xbca6d226	-0.020363878
89	0xbdc59c0c	-0.09648904
90	0x3bf7d45c	0.007563157
91	0x3cbcb419	0.023035096
92	0xbc789eb1	-0.015174554
93	0x3ccff0fa	0.025383461
94	0x3c0828da	0.008310521
95	0xbcf78bc3	-0.03021801
96	0xbd22ef40	-0.039778948
97	0x3bcdab73	0.006276542
98	0xbcbf941e	-0.023386057
99	0x3d48c684	0.049017444
100	0xbd45281f	-0.048133966
101	0x3d28e81a	0.041236974
102	0xbce3be75	-0.027800778
103	0x3b98ba71	0.0046608974
104	0xbb4f8e87	-0.0031670646
105	0x3bbdbc48	0.005790267
106	0x3d3f40d8	0.0466927
107	0x3c9d1cd5	0.019178787
108	0xbd3d02f9	-0.046145413
109	0xbd09cd38	-0.033642977
110	0xbd486e0a	-0.048933066
111	0x3bbce64b	0.0057647577
112	0x3d0ebc6f	0.034847673
113	0xbd3eebf2	-0.046611734
114	0x3cf1a727	0.02949865
115	0xbc8610c1	-0.01636541
116	0xbc5b4897	-0.013384006
117	0x39a9309a	0.00032270403
118	0x39f23785	0.00046199202
119	0x3bc025bb	0.005863873
120	0x3d10bf67	0.035338785
121	0xbd27cd94	-0.04096754
122	0xbd06c691	-0.03290421
123	0x3d13d40d	0.0360909
124	0x39e84f38	0.0004430951
125	0x3cb37906	0.021908294
126	0xbce63f6b	-0.028106412
127	0xbd0a1e74	-0.03372045
128	0x3b54f4b3	0.0032494485
129	0xbda3d71f	-0.080000155
130	0xbce13171	-0.027489396
131	0xbc4ad92d	-0.01238088
132	0xbd497af4	-0.049189523
133	0xbcb1d5f1	-0.02170846
134	0x3d05e96b	0.032693308
135	0x3d6f0b05	0.05836012
136	0xbcddfe06	-0.027098667
137	0x3d930090	0.07177842
138	0x3aefdaf0	0.0018299501
139	0x3d3572ee	0.04429906
140	0x3d8c4070	0.06848228
141	0x3c2456c1	0.010030449
142	0x3d171e84	0.036894336
143	0x3bbe9075	0.0058155605
144	0x3d2fee48	0.042951852
145	0xbc9f9868	-0.019481853
146	0x3d0fdbe1	0.035121802
147	0x3d4c7bec	0.04992287
148	0x3d10bf21	0.035338525
149	0x3d246acb	0.04014091
150	0xbce4efb5	-0.027946332
151	0xbce58d6d	-0.028021539
152	0xbce3c551	-0.027804049
153	0xbbee18d0	-0.0072661415
154	0x3d15c2bf	0.036562677
155	0xbc488a1f	-0.012239962
156	0xbb9c0a84	-0.0047619957
157	0xb9634bd7	-0.0002167666
158	0x3db6f2d2	0.08933033
159	0x3c855307	0.016274942
160	0xbc454ffa	-0.012042994
161	0x3d3ad115	0.045609552
162	0x3ca594d6	0.020212572
163	0x3d8a1651	0.06742538
164	0x3d0196d9	0.031638
165	0xbcdb7a6a	-0.02679177
166	0x3cb298da	0.0218014
167	0x3cfd3146	0.030907284
168	0x3d1bd28e	0.038042597
169	0x3cfe7278	0.031060442
170	0x3d3ead34	0.046551898
171	0xbc1a2306	-0.009407764
172	0xbcfd9064	-0.03095264
173	0x3cecf7c0	0.02892673
174	0x3c794d52	0.0152161885
175	0xbc8b95b7	-0.017039163
176	0x3d27c950	0.04096347
177	0x3ce0610a	0.027390022
178	0x3d13bf9b	0.0360714
179	0x3d656e90	0.056013644
180	0xbd200893	-0.039070677
181	0xbcd029c3	-0.025410539
182	0xbabc034a	-0.0014344242
183	0xbd39e5e2	-0.04538525
184	0x3d68e3e0	0.056857944
185	0xbd2facf3	-0.042889547
186	0x3cec0873	0.028812623
187	0xbd66f9fc	-0.056390747
188	0xbcd7498e	-0.02628019
189	0x3d6984b5	0.057011325
190	0xbc6d81d2	-0.014496284
191	0x3d531454	0.05153306
192	0xbbb32b26	-0.00546779
193	0xbb34fc85	-0.0027616334
194	0xbd59e841	-0.05320001
195	0xbd56bac6	-0.052424215
196	0xbce43eff	-0.02786207
197	0xbbb0be30	-0.005393766
198	0xbcb29edf	-0.021804271
199	0xba8da2f1	-0.0010806007
200	0x3d6a0d17	0.05714139
201	0x3d806922	0.062700525
202	0x3c5bf7ab	0.013425748
203	0x3d914a0a	0.070942
204	0xbc8ae61a	-0.016955424
205	0x3b31ca46	0.002712862
206	0x3cd26aff	0.025685785
207	0xbda2a8ff	-0.0794239
208	0xbc6b731f	-0.014370709
209	0xbd04dec7	-0.03243902
210	0x3c13b1b0	0.009014532
211	0xbc0efb0b	-0.0087268455
212	0x398c6759	0.0002677988
213	0xbca85228	-0.020546988
214	0x3aa3500a	0.0012459767
215	0x3c3c1b30	0.011481091
216	0xbd8e853d	-0.06959007
217	0x3b76eaf5	0.0037676666
218	0xbdbf3659	-0.09336538
219	0xbda46fb7	-0.080291204
220	0xbd97af23	-0.074064516
221	0xbd21e401	-0.039524082
222	0xbd01fada	-0.03173337
223	0xbd785fb3	-0.06063814
224	0xbc192230	-0.00934653
225	0x3d8ada5f	0.06779932
226	0x3b52d086	0.0032167747
227	0xbcb01c6a	-0.021497924
228	0x3b44ae17	0.0030010992
229	0x3af51539	0.0018698341
230	0x3c048b68	0.008089878
231	0x3ce0e350	0.027452141
232	0x3cd0d0a9	0.025490122
233	0x3d5129a0	0.051065087
234	0xba526f12	-0.0008027415
235	0xbdabcd2c	-0.08388743
236	0xbccf16c8	-0.025279418
237	0xbd8d2945	-0.06892637
238	0xbd6c3045	-0.05766322
239	0xbce8a795	-0.028400222
240	0xbd256678	-0.040380925
241	0x3c55342f	0.01301293
242	0xbdbd67b6	-0.09248297
243	0xbd6111ec	-0.054948732
244	0x3c39a997	0.011331937
245	0xba96d162	-0.0011506493
246	0xbd14aa7b	-0.036295395
247	0xbd8f5e65	-0.07000426
248	0xbd1967e2	-0.037452586
249	0x3b7ac5df	0.0038264913
250	0x3d1e5560	0.03865564
251	0x3c3ccc3b	0.011523302
252	0x3d02d381	0.031939987
253	0x3cc29cc7	0.023756398
254	0x3cfa260a	0.030535717
255	0x3cf8847b	0.03033661

encoder.4.bias f4 [64]
0	0x3b5483c5	0.0032427174
1	0xbd746efb	-0.05967615
2	0xbdaf1ed9	-0.085508056
3	0x3d889ec0	0.06670904
4	0xbd2eee0b	-0.042707484
5	0x3d21222a	0.039339222
6	0xbca817f3	-0.020519232
7	0xbc53e03d	-0.012931881
8	0xbabfd8c4	-0.0014636745
9	0xbd63898e	-0.055551104
10	0xbd69b139	-0.05705378
11	0xbd78d500	-0.060750008
12	0xbd9915a1	-0.074748285
13	0xbd4b4733	-0.049628448
14	0xbda80b91	-0.08205331
15	0xbd96e42b	-0.07367738
16	0x3c19b20f	0.009380831
17	0xbd79aec1	-0.060957674
18	0xbd82ecf7	-0.06392854
19	0xbcc2fe53	-0.023802912
20	0x3ad407d7	0.0016176653
21	0x3d5ef95c	0.054437026
22	0x3db96970	0.09053314
23	0xbcf95009	-0.030433672
24	0xbdb7d4e6	-0.08976154
25	0x3dde7ad6	0.10863273
26	0x3c3ed6b0	0.011647865
27	0xbd1fbb41	-0.03899694
28	0xbd8720f4	-0.06598082
29	0x3c18dd05	0.009330039
30	0x3cc847d8	0.02444832
31	0x3dd73fb1	0.10510195
32	0x3cc97ae0	0.024594724
33	0x3b95e4e0	0.004574403
34	0xbcdee141	-0.027207019
35	0xbcfee350	-0.03111425
36	0xbc84b56b	-0.016199788
37	0x3cae6fcf	0.021293549
38	0x3bb5a63f	0.0055434997
39	0xbd80fa71	-0.06297768
40	0x3b608ca3	0.0034263514
41	0x3d23dd09	0.040005717
42	0xbcfe5ee1	-0.031051101
43	0x3c7cfad5	0.015440662
44	0x3c943d0c	0.018095516
45	0x3b9cf4dc	0.0047899317
46	0xbd76bf3c	-0.06024097
47	0xbbeefa9e	-0.0072930595
48	0x3b958c41	0.0045638387
49	0x3d9beae9	0.07613165
50	0xbc85e800	-0.016345978
51	0x3ca0f7f2	0.01964948
52	0xbd9042b1	-0.070439704
53	0x3cc08648	0.02350153
54	0xbc07a795	-0.008279701
55	0xbcbcae65	-0.023032377
56	0xbc450cf6	-0.012027016
57	0x3c292758	0.010324322
58	0x3c6b4a5e	0.014360992
59	0xbbd853e2	-0.0066017965
60	0x3bb46079	0.0055046645
61	0xbc9519dc	-0.018200807
62	0xbd860e6c	-0.065457195
63	0xbd7722eb	-0.060336035

decoder.0.weight f4 [64, 32, 3, 3]
0	0x3c2d0176	0.01055943
1	0x3d930b7d	0.071799256
2	0x3baa9c0c	0.0052065905
3	0x3d07e9ae	0.03318184
4	0x3d33e9e5	0.04392423
5	0x3d09e827	0.033668663
6	0x3c946576	0.018114787
7	0xbcf9d35f	-0.030496297
8	0xbbfdd43e	-0.0077462485
9	0x3d5a837a	0.053348042
10	0x3be69896	0.0070372326
11	0xbc02aa4f	-0.007975175
12	0xbc623761	-0.013807149
13	0x3db41fe5	0.08795146
14	0x3b8a7b6c	0.004226139
15	0x3c6f0027	0.014587439
16	0x3c0ccc54	0.0085936375
17	0xbbf55e4d	-0.007488048
18	0xbd771310	-0.060320914
19	0xbd1f2986	-0.03885796
20	0xbcf08a0b	-0.029362699
21	0x3a80a259	0.0009814008
22	0xbd6b007a	-0.0573735
23	0x3d5850b0	0.052811325
24	0xbc4fbc73	-0.012679207
25	0xbb823f9d	-0.0039748685
26	0xbced2245	-0.028947005
27	0xbb0f7943	-0.0021892346
28	0x3d722a14	0.05912216
29	0x3a98e385	0.0011664486
30	0x3d181ec4	0.037138715
31	0xbcc258d3	-0.023723995
32	0xbd4c200e	-0.049835257
33	0xbd2a0df3	-0.04151721
34	0xbb8a1106	-0.004213455
35	0xbc45f2b6	-0.012081793
36	0x3ca2b966	0.019863795
37	0xbd093955	-0.03350194
38	0xbd23ea69	-0.040018473
39	0xbcedb022	-0.02901465
40	0x3d61e32e	0.055148296
41	0xbcdcf262	-0.026971046
42	0xbc9a70b9	-0.018852578
43	0x3d3235d1	0.043508355
44	0x3d3b6765	0.0457529
45	0xbd3eb853	-0.046562504
46	0xbd12be72	-0.035826154
47	0xbc98c1ae	-0.018647041
48	0x3d4aa96e	0.049477987
49	0xbd7f35b7	-0.062307086
50	0x3cfa7ecf	0.030578045
51	0xbba93cec	-0.005164733
52	0x3d51c875	0.05121656
53	0xbcd689ec	-0.026188813
54	0xbcc91974	-0.02454827
55	0xbce89efc	-0.028396122
56	0xbc17f667	-0.0092750555
57	0xbd0e921d	-0.034807313
58	0x3d842c3d	0.0645375
59	0xbd0020aa	-0.03128115
60	0x3ca06877	0.019581063
61	0xbd63de56	-0.055631958
62	0x3d45ea40	0.0483191
63	0x3bcf0ba9	0.0063185287
64	0xbce13091	-0.027488979
65	0x3d8e7763	0.06956365
66	0xbd336bb1	-0.043803874
67	0xbd73a448	-0.059482843
68	0xbb73fc64	-0.0037229294
69	0xbd482c5c	-0.04887043
70	0xbc65b0a0	-0.014019161
71	0x3d1f50b2	0.038895316
72	0xbbbf3a34	-0.005835796
73	0x3cd62ef2	0.026145432
74	0x3cf42e90	0.029807359
75	0xbd289086	-0.041153453
76	0xbc7fa820	-0.015604049
77	0x3d9985c8	0.0749622
78	0xbb961d8e	-0.00458116
79	0x3c82f576	0.015986186
80	0xbbfe6c5d	-0.0077643828
81	0x3b883fa2	0.0041579762
82	0x3d7b7068	0.061386496
83	0x3c9898ca	0.018627543
84	0x3cd0905c	0.02545946
85	0xbd55aa93	-0.052164625
86	0xbb98bc5f	-0.0046611275
87	0xbc925a03	-0.017865187
88	0x3d5a65e0	0.05331981
89	0x3cf0b3d7	0.02938263
90	0x3d0bc629	0.034124527
91	0xbb3f39d3	-0.0029178753
92	0xbd5b3658	-0.053518623
93	0xbb24ac87	-0.0025127248
94	0xbd4f3fe4	-0.05059804
95	0xbd4cfa3f	-0.05004334
96	0xbaba8091	-0.001422899
97	0x3c9aa635	0.018878082
98	0xbc97ceb5	-0.018531183
99	0x3aec08c0	0.0018007979
100	0x3cccd21c	0.025002532
101	0xbca9d953	-0.020733511
102	0xb8aba672	-8.184918e-05
103	0x3cfd613d	0.030930156
104	0xbcd99d34	-0.026564218
105	0xbd3e220c	-0.04641919
106	0xbd1346f0	-0.035956323
107	0x3c97ca6e	0.018529143
108	0x3d7d2071	0.061798517
109	0x3c81d69c	0.015849404
110	0x3d20d078	0.03926131
111	0x3c808fa9	0.015693503
112	0x3d8e6ddb	0.06954547
113	0x3da40f58	0.08010739
114	0x3d2d0109	0.042237315
115	0x3d38d550	0.045125306
116	0x3d903309	0.07040984
117	0xbb3b3659	-0.002856633
118	0x3d023f70	0.03179878
119	0xbc909664	-0.017649837
120	0x3d1f3017	0.03886422
121	0x3d83d3eb	0.064369045
122	0x3d678eeb	0.05653278
123	0x3d63b6f3	0.055594396
124	0xbc01086f	-0.007875546
125	0x3cb3f2ce	0.021966364
126	0xbd0fdc24	-0.03512205
127	0x3c145835	0.009054233
128	0xbbb46de5	-0.0055062645
129	0xbbd35b76	-0.006450112
130	0x3b000fee	0.0019540745
131	0xbb1c4cd1	-0.0023849497
132	0xbd4ca05f	-0.04995763
133	0xbbbfab94	-0.005849311
134	0x3c813d89	0.015776413
135	0x3d58f5b4	0.052968696
136	0xbbc5641e	-0.006023898
137	0xbd72c625	-0.059270997
138	0x3d2a1200	0.041521072
139	0xbcf94d8c	-0.030432485
140	0xbd29e992	-0.041482516
141	0x3b16197f	0.002290338
142	0x3c2089fe	0.009798525
143	0x3d1affc7	0.037841585
144	0xbc94072e	-0.01806983
145	0x3b2f4d01	0.0026748779
146	0x3d447207	0.047960307
147	0x3b0252c4	0.0019885758
148	0x3d3e8055	0.046509106
149	0x3da53047	0.08065849
150	0xbce772b0	-0.02825293
151	0xbd09120c	-0.033464476
152	0x3d395788	0.045249492
153	0xbd138f2f	-0.036025222
154	0x3d0543a5	0.032535214
155	0xbcfd8512	-0.030947242
156	0x3d3bafef	0.04582208
157	0x3d768b12	0.06019122
158	0x3d060580	0.03272009
159	0xbd0f610a	-0.035004653
160	0xbd365257	-0.04451212
161	0x3cc8bfae	0.024505462
162	0x3c813c28	0.015775755
163	0x3d0bf0d8	0.034165233
164	0xbd751a26	-0.05983939
165	0xbd2ea5c5	-0.04263856
166	0xbd2583d7	-0.040408935
167	0xbc5aa26c	-0.013344388
168	0xbd165f35	-0.03671189
169	0x3be9b4ec	0.0071321633
170	0x3d2a8ecb	0.041640084
171	0x3d2842bd	0.04107927
172	0xbd40e835	-0.04709645
173	0x3cc7bbb5	0.024381498
174	0xbc08219d	-0.008308795
175	0x3c79746c	0.015225511
176	0xbbc50306	-0.0060123233
177	0x3ca86ff5	0.020561198
178	0xbc8a67ea	-0.016895253
179	0xbbf4647b	-0.0074582673
180	0x3a006e8f	0.0004899287
181	0x3d42ad50	0.047528565
182	0xbc8583e7	-0.016298248
183	0x3d62e25e	0.05539166
184	0xba3acfb4	-0.0007126287
185	0x3d058e2d	0.032606293
186	0xbce38d6f	-0.027777402
187	0x3cb01b2a	0.021497328
188	0x3d443f18	0.047911733
189	0x3b2fdfda	0.0026836307
190	0x3d863233	0.065525435
191	0xbb822dff	-0.0039727683
192	0x3c482a66	0.01221714
193	0x3cb87da8	0.022520855
194	0x3d1e3c02	0.038631447
195	0x3d2849c5	0.041085977
196	0x3d0a1d91	0.033719603
197	0x3c1abd16	0.009444496
198	0xbc45344f	-0.012036397
199	0x3d51e909	0.05124763
200	0x3c83aaf8	0.016072735
201	0xbc925d80	-0.01786685
202	0xbd321b8d	-0.043483306
203	0xbc2f0d14	-0.01068427
204	0xbd01682b	-0.031593483
205	0x3aa1d1ee	0.0012345889
206	0xbcc7c6ed	-0.024386847
207	0x3ca02554	0.01954905
208	0x3c5f86c4	0.0136429705
209	0x3d12afe2	0.035812266
210	0xbcd82e68	-0.026389316
211	0x3b9a23fc	0.0047039967
212	0xbd770069	-0.060303126
213	0xbce665f8	-0.028124794
214	0x3cd2d320	0.025735438
215	0xbd7322cf	-0.059359368
216	0x36dc61c0	6.5678905e-06
217	0x3b8be037	0.004268672
218	0xbc8e4ada	-0.017369676
219	0x3cd98b6e	0.026555743
220	0x3db1caf4	0.08681288
221	0xbd05b933	-0.032647323
222	0x3ba45d5d	0.0050160126
223	0x3d9f04e6	0.07764606
224	0xbcfb120e	-0.030648258
225	0xbd500410	-0.050785124
226	0xbaffac4b	-0.0019506303
227	0xbcddaf01	-0.027060987
228	0xbd0a5aaa	-0.03377787
229	0xbd29f840	-0.041496515
230	0xbd2ec5fc	-0.04266928
231	0x3cd07f87	0.025451435
232	0xbc441018	-0.011966728
233	0x3c50ce9f	0.012744575
234	0xbd2f11ca	-0.042741574
235	0x3cb734cd	0.022364045
236	0xbb17d232	-0.0023166058
237	0xbd147a21	-0.036249284
238	0xbd121d12	-0.035672255
239	0x3cf76e05	0.030203829
240	0x3d58491f	0.05280411
241	0xbcdb95b5	-0.026804784
242	0xbc655109	-0.013996371
243	0x3b99c561	0.004692719
244	0x3b2b4154	0.0026131468
245	0x3cd42af2	0.025899384
246	0x3c3826c3	0.01123971
247	0xbb6c70c6	-0.003607796
248	0x3c1625ae	0.009164257
249	0x3cfdbe0c	0.03097441
250	0x3b5ebfea	0.0033988901
251	0xbc4bc729	-0.01243762
252	0xbc3afb9b	-0.0114125265
253	0xbd22e453	-0.03976853
254	0xbba2c9ce	-0.0049679046
255	0x3d56fe9f	0.05248892

decoder.0.bias f4 [32]
0	0x3cd86c54	0.026418842
1	0xbd5d1663	-0.053976428
2	0xbc043b41	-0.008070768
3	0xbdaacbfa	-0.08339687
4	0x3d96825c	0.07349083
5	0xbcd321e4	-0.025772996
6	0x3cd50656	0.026003998
7	0xbd2d619a	-0.04232941
8	0xbd9d5794	-0.0768272
9	0xbd5a39e3	-0.05327786
10	0x3cf76721	0.030200543
11	0xbd3c708b	-0.046005767
12	0xbce0deb3	-0.027449941
13	0xbccc2437	-0.024919612
14	0xbd2025b7	-0.039098468
15	0x3c9072ef	0.01763293
16	0xbd10d568	-0.03535977
17	0xbda61697	-0.081097774
18	0xbd28eee0	-0.041243434
19	0xbd8d483a	-0.06898542
20	0x3d8f0ccc	0.06984863
21	0xbd3aeb7d	-0.045634735
22	0xbbc46d5c	-0.005994482
23	0xbd027742	-0.031852014
24	0xbceab32e	-0.028649893
25	0xbd9884a0	-0.07447171
26	0xbccc8046	-0.02496351
27	0xbd31388a	-0.04326681
28	0xbc53871f	-0.012910633
29	0xbd5241cf	-0.05133229
30	0x3c2b6bd5	0.010462721
31	0xbd28c896	-0.04120692

decoder.2.weight f4 [32, 16, 3, 3]
0	0x3d0ee79e	0.034888856
1	0x3d7df4dd	0.062001098
2	0x3d777f9b	0.06042443
3	0x3c4e0316	0.012573978
4	0x3d23854c	0.039922044
5	0x3c8ab01f	0.016929684
6	0xbd8b64db	-0.06806346
7	0xbc435e59	-0.01192435
8	0x3d4e9eed	0.050444532
9	0xbd24fea5	-0.04028191
10	0x3d66a072	0.056305356
11	0x3cbcc84c	0.023044728
12	0x3b1ba798	0.0023751017
13	0x3dee5610	0.11637509
14	0xbbca5d72	-0.0061756903
15	0xbd0e99f2	-0.034814782
16	0x3d5e255e	0.054234855
17	0xbaf9c754	-0.0019056597
18	0xbbfc6df1	-0.0077035357
19	0xbdafcf61	-0.08584476
20	0x3c36d471	0.011159048
21	0x3b833254	0.0040038023
22	0x3d49f8b3	0.049309444
23	0xbc1339da	-0.008985961
24	0xbda0c3f1	-0.07849873
25	0x3cc30d0f	0.023809938
26	0xbd32fd2a	-0.043698467
27	0xbd81bb0e	-0.06334506
28	0x3d1d6ef5	0.038435895
29	0xbca6e5fa	-0.020373333
30	0xbc9b6160	-0.01896733
31	0xbb34c967	-0.0027585865
32	0xbc29821c	-0.010345962
33	0xbc63261c	-0.013864066
34	0x3d7e5b47	0.062098768
35	0xbd3cf23d	-0.046129454
36	0xbd039653	-0.032125782
37	0x3c7ccb2c	0.015429299
38	0xbb24872a	-0.0025104978
39	0x3d417e74	0.047239736
40	0x3db9efe0	0.09078956
41	0xbbf27318	-0.007398974
42	0x3d3fe8bb	0.04685281
43	0x3d6e67e9	0.058204565
44	0x3d137411	0.03599936
45	0xbd53197d	-0.05153798
46	0xbd3ea6f8	-0.046545953
47	0x3cb8d4be	0.02256238
48	0x3d4431f1	0.04789919
49	0xbd8ba480	-0.06818485
50	0xbd8b448c	-0.06800184
51	0xbd8cae38	-0.06869167
52	0xbd8e1e0e	-0.06939326
53	0x3ce9ca84	0.02853895
54	0xbd926b63	-0.07149389
55	0xbcf0ad8b	-0.029379627
56	0x3d6b3d6a	0.057431616
57	0xbd079cbb	-0.033108454
58	0xb984158d	-0.00025193059
59	0x3d9c0732	0.0761856
60	0x3d9e93c0	0.07743025
61	0xb9cf6bcc	-0.00039562432
62	0xbd305018	-0.043045133
63	0x3d78e13e	0.060761683
64	0x3c88fb6f	0.016721455
65	0xbd84d108	-0.06485182
66	0xbc67208f	-0.014106884
67	0x3cdea300	0.027177334
68	0x3d7c9448	0.06166485
69	0x3d38eefd	0.045149792
70	0x3d0400d6	0.03222736
71	0x3d55052b	0.05200688
72	0xbd3524b6	-0.044224463
73	0x3d61aced	0.055096556
74	0xbdaf8989	-0.085711546
75	0xbdceb5d1	-0.100932725
76	0xbc597508	-0.013272531
77	0x3d52288b	0.051308196
78	0x3d083cc9	0.033261094
79	0xbdb579b3	-0.08861103
80	0xbdbc8651	-0.09205306
81	0x3d5b363f	0.05351853
82	0x3d31ef52	0.043441124
83	0xbdbc4d5d	-0.091944434
84	0xbd99a6cc	-0.07502517
85	0x3cb63251	0.02224079
86	0x3d536ba2	0.05161632
87	0xbc9a5b94	-0.018842496
88	0x3d3a1a67	0.045435335
89	0x3b269f11	0.00254244
90	0xbd1afa25	-0.037836213
91	0x3d8ef9ba	0.06981225
92	0x3d5eee85	0.05442669
93	0xbd037673	-0.032095384
94	0x3d102982	0.035195835
95	0x3ae662b2	0.0017577021
96	0xbbabd20d	-0.005243546
97	0x3d2e8770	0.042609632
98	0xbc9dc45b	-0.019258669
99	0xbd9ce530	-0.076609015
100	0xbda15348	-0.07877213
101	0xbd528035	-0.0513918
102	0xbcf9f4d4	-0.030512251
103	0xbccdd9ba	-0.025128234
104	0xbd8e6b89	-0.069541045
105	0xbd9b5c69	-0.07585985
106	0xbdb37fb1	-0.087645896
107	0x3c0425ee	0.008065684
108	0xba73e84e	-0.00093043305
109	0x3d8bdaad	0.068288185
110	0xbd61427b	-0.05499504
111	0xbc6bfddc	-0.0144037865
112	0xbca6766e	-0.020320144
113	0x3d1dda4b	0.03853826
114	0xbd44696f	-0.04795211
115	0x3d0994d6	0.033589207
116	0xbb9d3e7d	-0.004798709
117	0xbd63e6fa	-0.0556402
118	0x3de4ebc3	0.111777805
119	0xbcd5e27d	-0.026108975
120	0x3dc0c0a1	0.09411741
121	0x3d4422cb	0.047884744
122	0xbd1222b3	-0.035677623
123	0xbd662fa7	-0.05619779
124	0x3dacf269	0.084446736
125	0xbce17faa	-0.027526695
126	0xbdbc68b6	-0.091996595
127	0xbcb0dcf9	-0.021589743
128	0xbd9c00ab	-0.07617315
129	0x3d7bd6f5	0.061484296
130	0x3a830e30	0.0009998735
131	0xbcb2caf5	-0.021825293
132	0x3ca57900	0.020199299
133	0x3d72a0f1	0.059235517
134	0xbd7a636a	-0.061129965
135	0x3d3b6fd2	0.045760937
136	0x3ca4f274	0.020135142
137	0xbd7ae149	-0.061250005
138	0x3b8356c0	0.004008144
139	0xbd9f1dae	-0.07769333
140	0xbda1cfdf	-0.079009764
141	0xbda1ac03	-0.07894137
142	0x3d3e8adc	0.046519145
143	0x3d4f68e5	0.050637145
144	0xbc8bd7b7	-0.017070634
145	0x3d946428	0.07245666
146	0xbd83cd50	-0.064356446
147	0x3bd6ed04	0.006559016
148	0x3def6c50	0.11690581
149	0x3dc33171	0.095309146
150	0x3d8928d5	0.06697241
151	0x3d9b0491	0.0756923
152	0x3db3e54f	0.087839715
153	0xbd65d58d	-0.05611186
154	0x3d240d90	0.040051997
155	0x3d47a67d	0.04874276
156	0xbc574961	-0.0131400535
157	0x3d87c279	0.066288896
158	0xbc830d37	-0.015997512
159	0x3d6dd76f	0.05806678
160	0xba87a5ea	-0.0010349129
161	0xbc274725	-0.010209833
162	0x3cb0ff0b	0.021605989
163	0xbcce08b0	-0.025150627
164	0xbcfe6e19	-0.031058358
165	0xbd883620	-0.066509485
166	0x3d837e44	0.06420568
167	0x3d097ad1	0.033564392
168	0x3d379235	0.04481717
169	0x3d4bac9a	0.049725153
170	0xbd744ecb	-0.059645455
171	0x3cc97aa9	0.024594622
172	0xbdc9e165	-0.09857444
173	0xbca8ca7b	-0.020604363
174	0xbd9608d6	-0.07325904
175	0x3da6b432	0.08139838
176	0xbdb8138d	-0.08988104
177	0xbd26b8cd	-0.040703584
178	0x3d230ddf	0.03980815
179	0x3cd6332e	0.026147451
180	0xbd3114f3	-0.04323287
181	0xbd4b9846	-0.049705766
182	0x3ccaf71a	0.02477603
183	0x3d9f5cf9	0.07781405
184	0x3d7f66dd	0.062353957
185	0x3dcb163e	0.09916352
186	0x3b2f4862	0.0026746024
187	0xbba767c0	-0.0051088035
188	0x3cef1245	0.029183516
189	0x3c9a58de	0.018841203
190	0xbd11e0f4	-0.035614923
191	0x3b982afb	0.0046437955
192	0x3d4785d9	0.04871163
193	0x3cd8217a	0.02638315
194	0xbcbf23b4	-0.023332454
195	0xbcba8507	-0.02276851
196	0x3d7e6669	0.062109385
197	0x3c206578	0.009789817
198	0xbd2842ee	-0.041079454
199	0x3d3f1576	0.046651326
200	0xbd826609	-0.06367118
201	0x3df024b4	0.117257506
202	0x3d7e473e	0.06207966
203	0x3dcd9975	0.10039035
204	0x3d514020	0.051086545
205	0xbd420090	-0.047363818
206	0x3d22da9e	0.03975927
207	0x3c409049	0.01175315
208	0x3c794652	0.01521452
209	0x3c33503e	0.010944424
210	0x3bd76516	0.0065733297
211	0x3d7bc1b3	0.061464023
212	0xbc98a107	-0.018631471
213	0x3d1add74	0.03780885
214	0x3d732aa6	0.059366845
215	0x3c28d463	0.010304543
216	0x3d0e7bee	0.034786157
217	0xbcb27662	-0.021784965
218	0x3ccf8faf	0.025337068
219	0xbcea1882	-0.02857614
220	0xbd9f50b5	-0.077790655
221	0xbd9de89a	-0.07710381
222	0xbdb9ef34	-0.090788275
223	0xbd33f419	-0.04393396
224	0x3d657989	0.056024108
225	0x3d338c11	0.04383475
226	0xbd9950c3	-0.07486107
227	0x3c8aeaea	0.016957719
228	0x3cea9205	0.02863408
229	0x3d8ca902	0.06868173
230	0x3d9381fd	0.07202528
231	0xbd005432	-0.031330295
232	0xbcf25461	-0.02958125
233	0x3da47dde	0.0803182
234	0x3d88f198	0.06686705
235	0xbd3a8562	-0.04553736
236	0x3c7797a0	0.015111834
237	0x3d51809f	0.051148053
238	0x3db0ab2e	0.086264
239	0x3d72af97	0.059249487
240	0xbd01275e	-0.031531684
241	0x3d77a924	0.06046404
242	0x3cc06de3	0.023489898
243	0xbd0d1c7a	-0.034450985
244	0xbb1fa000	-0.0024356842
245	0xbb8bdfe1	-0.004268632
246	0x3d76a8c9	0.06021956
247	0x3c711ae1	0.014715881
248	0xbd1ae307	-0.037814166
249	0x3c21c156	0.009872755
250	0xbcb16a89	-0.021657245
251	0xbd4fddbe	-0.05074858
252	0x3da9b474	0.08286372
253	0x3c1877e7	0.009305931
254	0xbd47774a	-0.048697747
255	0x3da0c8f2	0.07850827

decoder.2.bias f4 [16]
0	0x3af171c0	0.0018420741
1	0x3d0210dc	0.03175436
2	0x3d9e8099	0.07739372
3	0xbd5570d0	-0.05210954
4	0xbd9531e0	-0.072849035
5	0xbd25c686	-0.04047253
6	0xbda917fb	-0.08256527
7	0xbd828302	-0.06372644
8	0x3d3a004f	0.04541045
9	0xbdd2f631	-0.103008635
10	0x3d33a867	0.043861773
11	0x3d5fe177	0.05465838
12	0xbcf87074	-0.03032706
13	0xbd206ba0	-0.03916514
14	0xbc5ac334	-0.013352204
15	0xbc8fdcf3	-0.017561411

decoder.4.weight f4 [16, 3, 3, 3]
0	0xbe0a14ce	-0.13484499
1	0x3ddb1097	0.10696524
2	0x3e3d2c16	0.18473849
3	0x3de6c3b6	0.11267798
4	0xbe077bbf	-0.13230799
5	0x3e3ef4d8	0.18648088
6	0x3d32f9e1	0.043695334
7	0xbe1f26ab	-0.15542094
8	0x3e1d34eb	0.15352218
9	0x3e4c9956	0.19980368
10	0x3e6091f9	0.21930684
11	0x3bfb4bc6	0.007668945
12	0x3ad539dc	0.0016267854
13	0x3e206797	0.15664516
14	0x3e5f3c60	0.21800375
15	0x3d0f6d31	0.035016242
16	0x3dad0c04	0.084495574
17	0x3d476b2b	0.048686188
18	0x3de3bc84	0.11119941
19	0xbdcce199	-0.10003967
20	0x3e2efbec	0.17088288
21	0x3c8a12b9	0.01685463
22	0xbd257a8a	-0.040400065
23	0x3e6078f1	0.21921135
24	0x3c25ddbe	0.010123668
25	0x3c634f11	0.013873831
26	0xbae5fc16	-0.0017546441
27	0x3d3e0994	0.046395853
28	0x3c074d0d	0.008258116
29	0x3dcd7f45	0.1003404
30	0xbc7ccab4	-0.015429188
31	0x3d80a1f2	0.062808886
32	0xbd81329e	-0.063084826
33	0x3e404b85	0.18778808
34	0xbd8ab907	-0.067735724
35	0xbd822920	-0.063555
36	0x3da4264c	0.08015117
37	0x3e09c011	0.13452174
38	0x3d5534d9	0.052052353
39	0x3dd2fb4b	0.103018366
40	0x3e59696a	0.21231619
41	0xbd73edf6	-0.05955311
42	0x3d76aba7	0.060222294
43	0x397220da	0.00023091157
44	0xbd2a70c8	-0.041611463
45	0xbdefce46	-0.117092654
46	0x3e34da68	0.1766144
47	0xbd128bc7	-0.035777833
48	0x3dac73e0	0.08420539
49	0x3e80efde	0.25183004
50	0x3e17dd2e	0.14830467
51	0xbd660478	-0.056156605
52	0x3d5942b2	0.05304212
53	0xbbd16440	-0.0063901246
54	0x3dc0ce67	0.09414368
55	0x3d129317	0.035784807
56	0x3e116e00	0.14202118
57	0x3c868a2b	0.016423305
58	0xbdca7e4a	-0.09887369
59	0xbdd55452	-0.104164734
60	0xbdf558f7	-0.11979859
61	0x3d8c0725	0.068373
62	0xbca69dbc	-0.020338885
63	0xbe482e04	-0.19548804
64	0xbdaec5ee	-0.08533846
65	0xbd1094e8	-0.035298258
66	0x3e0e1050	0.1387341
67	0xbd84cb50	-0.06484091
68	0xbda77055	-0.081757225
69	0xbe5851fe	-0.21125028
70	0xbe517b6c	-0.20457238
71	0xbe44d14e	-0.19220468
72	0xbe3f12e0	-0.18659544
73	0x3de5c7ad	0.11219726
74	0xbb8db5c8	-0.0043246485
75	0xbe23b603	-0.159874
76	0x3caef160	0.021355331
77	0x3df1f56b	0.11814388
78	0xbdf4e632	-0.11957969
79	0x3e1bd845	0.15219219
80	0xbddd5875	-0.108078875
81	0x3c59f6f3	0.013303506
82	0xbde0c86a	-0.10975726
83	0x3e64d25f	0.22345875
84	0x3e081ded	0.13292666
85	0xbc963ab7	-0.018338544
86	0xbd891e74	-0.066952616
87	0xbcca4614	-0.024691619
88	0x3d5e3c1c	0.054256544
89	0xbda1c64b	-0.078991495
90	0xbd66c05b	-0.05633579
91	0xbbb3a490	-0.005482264
92	0xbe2dceed	-0.16973467
93	0xbd998d1b	-0.07497617
94	0x3e5c5615	0.21517213
95	0x3d9d8629	0.07691605
96	0x3e137cf0	0.14403129
97	0x3e4e9496	0.20173869
98	0xbdea810e	-0.114503965
99	0xbe127187	-0.1430112
100	0xbe30d5de	-0.17269084
101	0x3e5e8b20	0.2173276
102	0xbe0d416f	-0.13794492
103	0x3cceb070	0.025230616
104	0x3bfaa82b	0.0076494417
105	0xbcdbfb0c	-0.026853107
106	0xbb435203	-0.0029803521
107	0x3e1e2396	0.15443262
108	0xbd2b9c87	-0.041897323
109	0x3c5e8b97	0.0135830855
110	0x3e03c7f3	0.12869243
111	0xbdd5cf46	-0.10439925
112	0x3d0eb2ae	0.03483837
113	0x3d312354	0.043246582
114	0xbe1e550f	-0.15462135
115	0x3e621d76	0.22081551
116	0xbe0fd54b	-0.14046209
117	0x3e2fe28d	0.17176266
118	0x3de665f0	0.11249912
119	0x3e029225	0.12751062
120	0x3d81cc50	0.06337798
121	0xbde94fa4	-0.11392143
122	0xbdef85cb	-0.11695441
123	0xbbe968f5	-0.0071231076
124	0xbd1501a0	-0.036378503
125	0x3d5972eb	0.05308811
126	0xbe106d6d	-0.14104243
127	0x3e2a8ad8	0.16654527
128	0x3d049202	0.032365806
129	0xbd14dab0	-0.03634137
130	0x3e75f645	0.24019726
131	0xbcd7eb2f	-0.026357261
132	0x3d410328	0.04712215
133	0x3d334ede	0.043776385
134	0x3d8ef366	0.06980018
135	0xbd78e621	-0.060766343
136	0xbc1f5fc4	-0.009727422
137	0xbcb5561c	-0.022135787
138	0x3d4db4da	0.0502213
139	0xbde17e86	-0.110104606
140	0xbcc6e0f0	-0.02427718
141	0x3e32b879	0.17453183
142	0x3dbd13bf	0.09232282
143	0x3e3f1d41	0.18663503
144	0xbe06b907	-0.1315652
145	0xbd7e73b8	-0.062122077
146	0x3cc9a199	0.024613189
147	0x3d819c5b	0.063286506
148	0xbe1654da	-0.14680806
149	0x3cfcef47	0.030875815
150	0xbdca1a24	-0.09868267
151	0x3c038614	0.008027572
152	0x3c2af282	0.010433795
153	0xbdf5cf41	-0.12002421
154	0x3e0847c6	0.1330863
155	0x3d470ffd	0.048599232
156	0xbdf08e85	-0.117459334
157	0xbd816f0a	-0.06320007
158	0x3e23644d	0.1595623
159	0xbc56e34b	-0.013115714
160	0xbd4dab34	-0.0502121
161	0xbe1c7234	-0.1527794
162	0xbdce8418	-0.10083789
163	0xbd93a2ab	-0.07208761
164	0xbdbf2f1a	-0.09335156
165	0x3e137690	0.14400697
166	0x3d94f150	0.07272589
167	0x3d1e936b	0.038714807
168	0x3e2cbaff	0.16868208
169	0xbd8141fb	-0.06311413
170	0x3e139707	0.14413081
171	0xbe2999ac	-0.16562527
172	0x3d41aed3	0.047285866
173	0x3dfc273a	0.123121694
174	0x3e0de9bf	0.13858698
175	0xbcbce551	-0.023058565
176	0x3ce0e0ff	0.027451036
177	0x3d3e30f5	0.046433408
178	0xbcc503c6	-0.02404965
179	0x3db0e230	0.08636892
180	0xbe0fb870	-0.14035201
181	0x3e194391	0.14967181
182	0x3da95c5e	0.08269571
183	0x3e3b6d19	0.18303336
184	0x3e29e62a	0.16591707
185	0x3b43f5d0	0.0029901154
186	0x3d5ce0cd	0.053925324
187	0x3d0d90fa	0.03456209
188	0xbcc47376	-0.023980837
189	0x3e3767a0	0.17910624
190	0xbe2e421d	-0.17017408
191	0x3dea7863	0.11448743
192	0xbe1a6d7e	-0.1508083
193	0x3e5b2e42	0.21404365
194	0x3e0c34f1	0.1369207
195	0x3bc987ea	0.0061502354
196	0xbd7b138f	-0.06129795
197	0x3e156aa4	0.14591461
198	0xbe20a3db	-0.15687506
199	0x3e23d266	0.1599823
200	0x3e082a93	0.13297491
201	0xbdd40f4f	-0.103544824
202	0x3d1dd1f5	0.03853031
203	0xbe0f1b76	-0.1397532
204	0x3db3cdea	0.08779509
205	0xbc4f82b8	-0.012665443
206	0x3e3c38af	0.18380998
207	0xbdd85338	-0.10562748
208	0x3e37075b	0.178739
209	0x3e231d16	0.15929064
210	0xbd3fc038	-0.046814173
211	0xbbc73eaa	-0.006080468
212	0x3df480f2	0.11938657
213	0xbd74174c	-0.05959253
214	0xbc5989e8	-0.013277508
215	0xbc65a28c	-0.014015805
216	0xbd120b0e	-0.035655074
217	0x3e378cb0	0.17924762
218	0x3deb507a	0.11489959
219	0x3da75099	0.0816967
220	0xbde9b195	-0.11410824
221	0xbe1214da	-0.14265767
222	0x3e11462c	0.14186925
223	0x3e2949c7	0.1653205
224	0xbdb51c0c	-0.0884324
225	0xbe245b7c	-0.16050524
226	0xbd118d2e	-0.03553503
227	0x3ddc6bca	0.10762747
228	0x3db637a3	0.088973306
229	0xbe1fb921	-0.15597965
230	0x3e3862d8	0.18006456
231	0x3c21a409	0.009865769
232	0x3e33858f	0.17531417
233	0x3ce871b8	0.028374538
234	0xbe11d560	-0.14241552
235	0x3d783bd3	0.060603928
236	0xbe1abe30	-0.15111613
237	0xbe095e4f	-0.13414882
238	0xbe0ab1a0	-0.13544321
239	0x3ca0b32d	0.019616688
240	0xbc791a04	-0.0152039565
241	0x3e3069e7	0.17227899
242	0xbcaa4acc	-0.020787619
243	0xbcbfaaa4	-0.023396797
244	0x3e194bea	0.14970365
245	0x3d47e74a	0.04880456
246	0x3dbf2afd	0.09334371
247	0xbdc88ecc	-0.09792861
248	0x3e3886bc	0.18020147
249	0x3dd5eefc	0.10445973
250	0xbd2adf76	-0.041717015
251	0xbcf2a32c	-0.029618822
252	0x3d814d67	0.063135915
253	0x3e3203c4	0.17384249
254	0xbe01b0ef	-0.12665151
255	0xbd982892	-0.07429613

decoder.4.bias f4 [3]
0	0xbbedf3bc	-0.0072617214
1	0xbc963bbd	-0.018339032
2	0xbe4259a3	-0.18979506
